…
n><br><span class="line">model.add(layers.Dense(<span class="number">10</span>))</span><br></pre></td></tr></table></figure><figure class="highlight python"><table><tr><td class="gutter"><pre><span class="line">1</span><br></pre></td><td class="code"><pre><span class="line">model.summary()</span><br></pre></td></tr></table></figure><pre><code>Model: &quot;sequential_2&quot;_________________________________________________________________Layer (type)                 Output Shape              Param #   =================================================================conv2d_2 (Conv2D)            (None, 26, 26, 6)         60        _________________________________________________________________batch_normalization_2 (Batch (None, 26, 26, 6)         24        _________________________________________________________________max_pooling2d_2 (MaxPooling2 (None, 13, 13, 6)         0         _________________________________________________________________re_lu_2 (ReLU)               (None, 13, 13, 6)         0         _________________________________________________________________conv2d_3 (Conv2D)            (None, 11, 11, 16)        880       _________________________________________________________________batch_normalization_3 (Batch (None, 11, 11, 16)        64        _________________________________________________________________max_pooling2d_3 (MaxPooling2 (None, 5, 5, 16)          0         _________________________________________________________________re_lu_3 (ReLU)               (None, 5, 5, 16)          0         _________________________________________________________________flatten_1 (Flatten)          (None, 400)               0         _________________________________________________________________dense_3 (Dense)              (None, 120)               48120     _________________________________________________________________dense_4 (Dense)              (None, 84)                10164     _________________________________________________________________dense_5 (Dense)              (None, 10)                850       =================================================================Total params: 60,162Trainable params: 60,118Non-trainable params: 44_________________________________________________________________</code></pre><figure class="highlight python"><table><tr><td class="gutter"><pre><span class="line">1</span><br><span class="line">2</span><br><span class="line">3</span><br><span class="line">4<
…
pan><br><span class="line">model.add(layers.Dense(<span class="number">10</span>))</span><br></pre></td></tr></table></figure><figure class="highlight python"><table><tr><td class="gutter"><pre><span class="line">1</span><br></pre></td><td class="code"><pre><span class="line">model.summary()</span><br></pre></td></tr></table></figure><pre><code>Model: &quot;sequential&quot;_________________________________________________________________Layer (type)                 Output Shape              Param #   =================================================================conv2d (Conv2D)              (None, 32, 32, 64)        1792      _________________________________________________________________conv2d_1 (Conv2D)            (None, 32, 32, 64)        36928     _________________________________________________________________max_pooling2d (MaxPooling2D) (None, 16, 16, 64)        0         _________________________________________________________________conv2d_2 (Conv2D)            (None, 16, 16, 128)       73856     _________________________________________________________________conv2d_3 (Conv2D)            (None, 16, 16, 128)       147584    _________________________________________________________________max_pooling2d_1 (MaxPooling2 (None, 8, 8, 128)         0         _________________________________________________________________conv2d_4 (Conv2D)            (None, 8, 8, 256)         295168    _________________________________________________________________conv2d_5 (Conv2D)            (None, 8, 8, 256)         590080    _________________________________________________________________conv2d_6 (Conv2D)            (None, 8, 8, 256)         590080    _________________________________________________________________max_pooling2d_2 (MaxPooling2 (None, 4, 4, 256)         0         _________________________________________________________________conv2d_7 (Conv2D)            (None, 4, 4, 512)         1180160   _________________________________________________________________conv2d_8 (Conv2D)            (None, 4, 4, 512)         2359808   _________________________________________________________________conv2d_9 (Conv2D)            (None, 4, 4, 512)         2359808   _________________________________________________________________max_pooling2d_3 (MaxPooling2 (None, 2, 2, 512)         0         _________________________________________________________________conv2d_10 (Conv2D)           (None, 2, 2, 512)         2359808   _________________________________________________________________conv2d_11 (Conv2D)           (None, 2, 2, 512)         2359808   _________________________________________________________________conv2d_12 (Conv2D)           (None, 2, 2, 512)         2359808   _________________________________________________________________max_pooling2d_4 (MaxPooling2 (None, 1, 1, 512)         0         _________________________________________________________________dense (Dense)                (None, 1, 1, 256)         131328    _________________________________________________________________dense_1 (Dense)              (None, 1, 1, 64)          16448     _________________________________________________________________dense_2 (Dense)              (None, 1, 1, 10)          650       =================================================================Total params: 14,863,114Trainable params: 14,863,114Non-trainable params: 0_________________________________________________________________</code></pre><figure class="highlight python"><table><tr><td class="gutter"><pre><span class="line">1</span><br><span class="line">2</span><br><span class="line">3</span><br><span class="l
…
