…
>model.add(layers.Dense(<span class=\"number\">10</span>))</span><br></pre></td></tr></table></figure>\n<figure class=\"highlight python\"><table><tr><td class=\"gutter\"><pre><span class=\"line\">1</span><br></pre></td><td class=\"code\"><pre><span class=\"line\">model.summary()</span><br></pre></td></tr></table></figure>\n<pre><code>Model: &quot;sequential_2&quot;\n_________________________________________________________________\nLayer (type)                 Output Shape              Param #   \n=================================================================\nconv2d_2 (Conv2D)            (None, 26, 26, 6)         60        \n_________________________________________________________________\nbatch_normalization_2 (Batch (None, 26, 26, 6)         24        \n_________________________________________________________________\nmax_pooling2d_2 (MaxPooling2 (None, 13, 13, 6)         0         \n_________________________________________________________________\nre_lu_2 (ReLU)               (None, 13, 13, 6)         0         \n_________________________________________________________________\nconv2d_3 (Conv2D)            (None, 11, 11, 16)        880       \n_________________________________________________________________\nbatch_normalization_3 (Batch (None, 11, 11, 16)        64        \n_________________________________________________________________\nmax_pooling2d_3 (MaxPooling2 (None, 5, 5, 16)          0         \n_________________________________________________________________\nre_lu_3 (ReLU)               (None, 5, 5, 16)          0         \n_________________________________________________________________\nflatten_1 (Flatten)          (None, 400)               0         \n_________________________________________________________________\ndense_3 (Dense)              (None, 120)               48120     \n_________________________________________________________________\ndense_4 (Dense)              (None, 84)                10164     \n_________________________________________________________________\ndense_5 (Dense)              (None, 10)                850       \n=================================================================\nTotal params: 60,162\nTrainable params: 60,118\nNon-trainable params: 44\n_________________________________________________________________\n</code></pre><figure class=\"highlight python\"><table><tr><td class=\"gutter\"><pre><span class=\"line\">1</span><br><span class=\"line\">2</span><br><span class=\"line\">3</span><br
…
\">model.add(layers.Dense(<span class=\"number\">10</span>))</span><br></pre></td></tr></table></figure>\n<figure class=\"highlight python\"><table><tr><td class=\"gutter\"><pre><span class=\"line\">1</span><br></pre></td><td class=\"code\"><pre><span class=\"line\">model.summary()</span><br></pre></td></tr></table></figure>\n<pre><code>Model: &quot;sequential&quot;\n_________________________________________________________________\nLayer (type)                 Output Shape              Param #   \n=================================================================\nconv2d (Conv2D)              (None, 32, 32, 64)        1792      \n_________________________________________________________________\nconv2d_1 (Conv2D)            (None, 32, 32, 64)        36928     \n_________________________________________________________________\nmax_pooling2d (MaxPooling2D) (None, 16, 16, 64)        0         \n_________________________________________________________________\nconv2d_2 (Conv2D)            (None, 16, 16, 128)       73856     \n_________________________________________________________________\nconv2d_3 (Conv2D)            (None, 16, 16, 128)       147584    \n_________________________________________________________________\nmax_pooling2d_1 (MaxPooling2 (None, 8, 8, 128)         0         \n_________________________________________________________________\nconv2d_4 (Conv2D)            (None, 8, 8, 256)         295168    \n_________________________________________________________________\nconv2d_5 (Conv2D)            (None, 8, 8, 256)         590080    \n_________________________________________________________________\nconv2d_6 (Conv2D)            (None, 8, 8, 256)         590080    \n_________________________________________________________________\nmax_pooling2d_2 (MaxPooling2 (None, 4, 4, 256)         0         \n_________________________________________________________________\nconv2d_7 (Conv2D)            (None, 4, 4, 512)         1180160   \n_________________________________________________________________\nconv2d_8 (Conv2D)            (None, 4, 4, 512)         2359808   \n_________________________________________________________________\nconv2d_9 (Conv2D)            (None, 4, 4, 512)         2359808   \n_________________________________________________________________\nmax_pooling2d_3 (MaxPooling2 (None, 2, 2, 512)         0         \n_________________________________________________________________\nconv2d_10 (Conv2D)           (None, 2, 2, 512)         2359808   \n_________________________________________________________________\nconv2d_11 (Conv2D)           (None, 2, 2, 512)         2359808   \n_________________________________________________________________\nconv2d_12 (Conv2D)           (None, 2, 2, 512)         2359808   \n_________________________________________________________________\nmax_pooling2d_4 (MaxPooling2 (None, 1, 1, 512)         0         \n_________________________________________________________________\ndense (Dense)                (None, 1, 1, 256)         131328    \n_________________________________________________________________\ndense_1 (Dense)              (None, 1, 1, 64)          16448     \n_________________________________________________________________\ndense_2 (Dense)              (None, 1, 1, 10)          650       \n=================================================================\nTotal params: 14,863,114\nTrainable params: 14,863,114\nNon-trainable params: 0\n_________________________________________________________________\n</code></pre><figure class=\"highlight python\"><table><tr><td class=\"gutter\"><pre><span class=\"line\">1</span><br><span class=\"line\">2</span><br><span class=\"line\">3</s
…
